intrusion_detector_full.pth (torch, 16680 bytes, 5 tensors)

weight f4 [64, 13]
000000 19 82 3d 3e 1e 22 39 3f c7 b0 e7 bd 51 70 36 3e
       0.1850666 0.72317684 -0.113130145 0.17816283
000010 7f 74 b2 be 7e 5f 57 bd c8 ba a4 3e 56 f9 46 bd
       -0.34854504 -0.052581303 0.32173753 -0.04857763
000020 40 e3 07 3e 6e fd d5 3c 40 f8 3d be 8d 50 ef 3d
       0.13270283 0.026121821 -0.18551731 0.11685286
000030 4d 6f b4 3d 0a de f4 bb d6 f8 43 3f f5 35 9d 3c
       0.088102914 -0.007472758 0.7655157 0.019190768
000040 fc 94 57 3e 67 b2 89 bd 19 6e 63 bc 62 6f 35 3d
       0.21052927 -0.06723481 -0.01388123 0.044295676
000050 4a 4f 7a 3d 53 5b 21 bd 33 fd 60 bd 36 19 6a bd
       0.061110772 -0.039393734 -0.05492897 -0.05715295
000060 ee be 9e bc 24 d4 6b 3e e4 d0 86 3d 9c 4d 9a bd
       -0.019378152 0.23030144 0.065828115 -0.07534334
000070 75 9f ce 3e 3f 3a a2 bd e9 ca 95 be 04 d0 2c 3e
       0.4035603 -0.07921266 -0.2925637 0.16876227
000080 94 07 83 be 93 1d f6 bc 5a 59 55 be 99 39 86 bd
       -0.2559172 -0.030043399 -0.20834866 -0.06553955
000090 f1 8b 16 be 47 6d 0e be 44 39 79 be 49 e7 45 be
       -0.14701821 -0.13908873 -0.24338251 -0.1932651
0000a0 6b 05 59 3e 85 57 19 3e cb bb 39 3d bf b8 b8 3e
       0.21193473 0.14974792 0.04534511 0.3607845
0000b0 0f f8 15 bd 8f ec af bd 82 99 aa be c3 48 3c 3e
       -0.03661352 -0.08590042 -0.33320242 0.18387131
0000c0 bb 2b 09 be 1c 80 56 bd 84 73 05 be db d3 b6 3e
       -0.13395588 -0.05236827 -0.13032347 0.35708508
0000d0 da 13 1b be 3d 4e 1b bf 85 04 bc 3d 31 3b 43 be
       -0.15144292 -0.6066626 0.091805495 -0.19065548
0000e0 6b 0b 6e 3d fe 01 3d 3e d1 2f 29 3d 33 ca 63 be
       0.058116358 0.18457791 0.041305367 -0.22245102
0000f0 97 09 ad 3d 62 5a 66 3c 0b e9 b3 be d6 29 e6 3d
       0.08449095 0.014059635 -0.35138735 0.11238448
000100 d3 8b ba bd eb 6b 07 be 4c 57 00 be 6a 9f 4d be
       -0.091087006 -0.13224761 -0.12533301 -0.20080343
000110 4c 0b 44 bd 4a 1f da be be 00 9b 3c f6 3d 3d bd
       -0.047862336 -0.42601997 0.018921252 -0.04620167
000120 54 b7 af be 30 7a 13 bd 58 39 42 be 50 77 ad bd
       -0.34319556 -0.0360052 -0.18967187 -0.08470023
000130 05 7a b2 3d 9e 12 ba be b4 eb e8 3d dd e2 83 be
       0.0871468 -0.3634233 0.11373082 -0.2575902
000140 8e 45 73 3e 63 8e ae bd 10 47 82 be de 7d 4d bf
       0.23757002 -0.08523252 -0.2544484 -0.80270183
000150 35 bf d8 3e a6 c1 8f 3e 74 0e 9d 3e 05 66 92 bd
       0.4233338 0.2807743 0.3067509 -0.07148365
000160 82 75 4b 3e 6f e8 e6 3c 73 0c d1 3c a9 08 c8 3d
       0.19869044 0.028187005 0.025518632 0.09767277
000170 84 c5 55 be 4b 70 1e be 63 ee 99 3c c8 1a aa be
       -0.20876127 -0.15472524 0.01879043 -0.33223557
000180 07 dd 62 3e 26 6b 03 be cc 92 56 3e 3c 95 d2 3d
       0.22154628 -0.12833843 0.20954436 0.102823704
000190 af 2d b4 3e 33 8c 94 3d 29 b2 55 3e 7d c2 81 bd
       0.35191104 0.072533034 0.20868744 -0.06335924
0001a0 99 0f 6e 3e 66 af 12 3f 48 2c 80 3e 56 e9 19 3e
       0.23248138 0.57298887 0.25033784 0.15030417
0001b0 af 23 3b be 96 a7 af 3d 26 14 6e bd 4f bd 88 3e
       -0.18275331 0.08576886 -0.058124684 0.2670693
0001c0 76 dd a7 be 10 5e 04 bd 97 29 c0 3c 01 ba 84 bd
       -0.3278615 -0.032316267 0.023457332 -0.0648079
0001d0 6d ea 23 3e 80 6d 94 3c f9 64 34 be 34 a9 05 3d
       0.16007395 0.01811862 -0.17616643 0.032632068
0001e0 2e c4 4e be 9f 54 48 3f a9 28 0a 3d 57 b4 08 3c
       -0.20192024 0.7825412 0.033730183 0.008343778
0001f0 67 92 f7 3b d7 eb 40 bd d0 71 1c bd db 0b 2a 3d
       0.0075552943 -0.047099914 -0.038194478 0.041515213
000200 ea 20 4c 39 19 89 2e bd 7f 26 e3 bd 28 80 c8 be
       0.00019467217 -0.042611215 -0.11091327 -0.39160275
000210 00 12 33 3e f8 85 2a be ea 13 d8 be 3d 14 12 bf
       0.17487335 -0.16652668 -0.42202693 -0.5706213
000220 b4 37 a0 bd d6 a2 1a 3e e0 95 ac 3e 09 62 d9 3d
       -0.078231245 0.1510118 0.33708096 0.10614402
000230 f5 6c fd bd 47 8d b6 bd a3 aa 85 be e2 47 b5 3c
       -0.123742975 -0.08913665 -0.26106748 0.022129003
000240 35 24 fc 3e 18 e9 54 be 9c 28 d0 3d a4 18 c0 be
       0.49246374 -0.20792043 0.101639956 -0.375188
000250 3a ad 4b 3e c6 06 fa bd f2 33 ce be f6 4c 79 be
       0.198903 -0.12208323 -0.40274006 -0.24345765
000260 83 aa 35 bd a2 74 32 bc 02 5a 0e 3c fe 8f cc bc
       -0.044352066 -0.010892065 0.008688452 -0.024971005
000270 dd 32 92 be df 31 84 3e a8 38 ae 3d 2b 29 88 bd
       -0.2855443 0.258193 0.085069 -0.06648477
000280 57 1d 03 3f d8 00 31 3e 9a ca 13 3e 1e 61 b2 3d
       0.51216644 0.17285478 0.14432755 0.0870993
000290 87 f0 ac 3d 1f 0c 79 3e cb f3 e2 3d b3 75 10 be
       0.084443145 0.2432103 0.11081656 -0.14107399
0002a0 2a 2f e9 3e a6 e7 f8 bb 5f ee 39 be e4 ce 9d 3c
       0.45543796 -0.007595974 -0.18157338 0.019263692
0002b0 7a 8f 97 3d 7a 60 62 3f ee f8 c3 3c 9b 24 ea 3d
       0.07400413 0.8842846 0.02392241 0.11432763
0002c0 da 91 d7 3d 4b 3d 43 3e 82 23 17 3e 76 b0 3a 3e
       0.10525866 0.1906635 0.14759639 0.18231377
0002d0 74 9f ae 3d e5 b8 69 3d 93 31 19 3e 87 df 9f be
       0.08526507 0.057061095 0.14960317 -0.31225225
0002e0 6b ba 6f 3e b8 97 f7 3c 6f b1 72 bd 95 af 36 bf
       0.23410957 0.030223712 -0.059251245 -0.71361667
0002f0 f7 4d d7 3e 88 df f6 3d 4f f6 3f 3e cb 6c a7 3d
       0.4205167 0.12054354 0.18746303 0.081750475
000300 5a 63 16 3e 0b c1 2c bd f0 0b 3c be e4 63 0b be
       0.14686337 -0.042176288 -0.18363929 -0.13612324
000310 5b 28 75 be 38 28 9a 3e 07 32 cf bd 86 fc 0a be
       -0.23941176 0.3010881 -0.10116964 -0.13572893
000320 da a6 eb 3d 0c 34 5e be 9d 95 81 3d 04 4b 94 3d
       0.11506434 -0.21699542 0.063273646 0.072408706
000330 f3 d7 28 be 1c d1 b1 bd 67 97 37 bd 5e c9 28 be
       -0.16488628 -0.086824626 -0.044822123 -0.16483065
000340 d8 45 eb be 37 8e 3f bd 1d a8 f7 bd d6 12 1e be
       -0.45951724 -0.046766486 -0.12092612 -0.15436873
000350 b0 1a 10 bd 7a 54 17 be a7 4e c7 3e cd 25 b5 be
       -0.0351817 -0.14778319 0.38927194 -0.35380402
000360 95 04 3f be 8a 31 0a be 78 d5 9f bd 88 a2 c6 be
       -0.18654092 -0.1349546 -0.07804388 -0.38795877
000370 d9 1c 6d be 78 68 31 be b6 5e 02 bf b1 9c 76 bd
       -0.23155536 -0.17325008 -0.5092577 -0.060208026
000380 d8 70 0d be 44 81 19 3f f2 aa 41 3e f7 87 ae 3d
       -0.13812578 0.5996287 0.18912867 0.08522027
000390 35 da 61 be b0 32 9d bd 11 0a d8 bd 24 46 26 3e
       -0.22055896 -0.076756835 -0.10548795 0.16237694
0003a0 c2 8a a5 bd e5 1a 41 be b3 a5 96 3e 5e 8f 95 3d
       -0.080831066 -0.18857916 0.29423293 0.07302736
0003b0 74 6a bc 3e 8b f4 10 be 29 45 2c 3f 73 cd fd bc
       0.36799967 -0.14155786 0.6729303 -0.030981755
0003c0 e7 46 33 3b 39 64 10 bd 4d 55 59 3e 3d e1 44 bc
       0.0027355494 -0.03525183 0.21223946 -0.012016592
0003d0 d2 77 9c be 13 99 33 3e 6d b9 2b bd 13 53 ce 3d
       -0.30560166 0.17538862 -0.041924883 0.10074439
0003e0 4e 22 85 be d9 67 f0 bd c2 44 02 3e fe 5c 1b 3f
       -0.26002735 -0.11738557 0.12721542 0.6068877
0003f0 be 83 5e bd c9 43 1f be 22 f2 79 3e 33 cb 09 3d
       -0.054324858 -0.15553202 0.24408773 0.03364105

bias f4 [64]
000000 a5 de 04 bb a3 07 51 bf a4 8d 71 3d 15 db d3 bd
       -0.0020274308 -0.8165228 0.05897297 -0.10344521
000010 6a e1 83 3e cb d2 42 3e 06 70 f6 bd 00 48 12 bf
       0.25757915 0.19025724 -0.120330855 -0.57141113
000020 bc eb e1 be 35 4c 38 bf 8d fb ae be 4f e7 1d 3e
       -0.44125164 -0.7199128 -0.34176293 0.15420268
000030 80 6e 21 be b5 34 2a bf 84 7c fe bc b3 49 44 3e
       -0.15764809 -0.66486675 -0.031065233 0.19168739
000040 7f 81 1f be bc d5 c6 be a5 8f fa bd ef c7 8b be
       -0.15576743 -0.3883494 -0.12234429 -0.27300975
000050 5c 0e 01 3d 2d 70 28 bf fd 96 18 bf b8 58 c3 3d
       0.031507835 -0.65796167 -0.5960539 0.09538406
000060 f2 d1 a1 be 88 ff cf be f0 8c 76 be d8 e5 c4 be
       -0.31605488 -0.40624642 -0.24077201 -0.38456607
000070 94 6d 73 3e 7a 2a 50 3d 49 be 87 3e 4a 46 4f bc
       0.2377227 0.05082176 0.26512364 -0.012651036
000080 b1 5e d3 be 5e aa b7 3e 19 dd be 3d 4f f8 57 3d
       -0.4128318 0.35872167 0.09319515 0.05272704
000090 39 f3 fe be d9 5b 14 bf 82 95 35 bf 02 a6 34 be
       -0.4979494 -0.5795265 -0.70931256 -0.17641452
0000a0 bb af 0e be 53 6f 91 be d2 d8 20 be ee a6 8d bd
       -0.13934223 -0.28405246 -0.1570771 -0.06916605
0000b0 38 94 00 bf 18 da 99 bc a6 67 a2 be db 25 8e 3c
       -0.50226164 -0.018780753 -0.31719702 0.017352035
0000c0 43 63 8d bd 4a c7 c9 3d df bd e3 be f1 8a d8 be
       -0.06903698 0.098524645 -0.44480798 -0.42293504
0000d0 38 3b e7 3d 30 f1 fa be 34 3b 66 bd 88 ab 51 bf
       0.11290592 -0.49012136 -0.056208804 -0.8190236
0000e0 a9 62 0b bf a8 6c 4c bf 33 37 a7 be 3d a4 0d bf
       -0.5444742 -0.79853296 -0.326593 -0.5532873
0000f0 3f 16 99 be af c2 8d be cf ca 2b bd 62 ec 95 3e
       -0.29899785 -0.27687594 -0.04194146 0.29281908

weight f4 [32, 64]
000000 a3 58 e9 3d fe d0 90 3f 39 f5 a3 be bf 9a e5 3c
       0.11393859 1.1313779 -0.32023028 0.02802789
000010 7d 72 e3 be f5 fc 9f bb f5 01 58 3d 7e b2 79 3c
       -0.44423285 -0.0048824497 0.05273624 0.01524031
000020 20 c1 93 bd 1c 03 8c 3f f0 ec dd be a0 5b 1a 3d
       -0.0721457 1.0938449 -0.4334483 0.037685037
000030 f1 4c 3e 3e 3f 78 4c 3f 45 27 1b bf 35 f8 20 bf
       0.18584038 0.7987098 -0.60606796 -0.62878734
000040 04 04 85 3d fa de 72 3e fe fa a3 be 1c 78 5c 3e
       0.064949065 0.23717871 -0.3202743 0.21530193
000050 d8 92 0e bf d9 ef d2 3e 16 54 80 bd 7b 09 43 3e
       -0.55692816 0.41198614 -0.06266038 0.19046585
000060 ea 55 88 be 22 88 cd 3d 55 3f b7 3d 71 11 cc 3d
       -0.26628047 0.10035731 0.089476265 0.09964264
000070 e0 0b 67 be 46 4b 12 be 0e 6c 43 3e 8c 4b 0b bf
       -0.22563124 -0.14286527 0.19084188 -0.5441215
000080 de 48 14 be d7 70 0e be a9 77 fb be df 7b b8 3c
       -0.14480922 -0.13910232 -0.4911473 0.022520004
000090 01 17 49 3d 56 0d 6a 3f 3f b5 a1 3e 46 16 8e 3e
       0.049094204 0.914266 0.31583592 0.27751368
0000a0 bc 42 1a 3e eb a2 d7 bd 6c 11 d6 be 37 cf 27 3d
       0.1506452 -0.10529121 -0.41810167 0.0409691
0000b0 f3 1c 79 3e 50 c4 89 be a1 fc 94 3d 9d 2b fe 3d
       0.2432745 -0.26907587 0.07274748 0.12410662
0000c0 94 f3 e2 be 78 32 94 be f3 f3 4c 3d 72 10 8c bc
       -0.4432646 -0.28944755 0.050037336 -0.017097685
0000d0 c5 95 1f bd d3 a0 33 3f 9d f8 81 bb 62 bf a0 3f
       -0.03896119 0.70167273 -0.0039664046 1.2558405
0000e0 ac 73 00 3f 75 cb 41 3f dc 78 c5 3c 01 22 f6 bd
       0.501765 0.75701076 0.024105482 -0.120182045
0000f0 ec c0 ca bc 38 c4 19 3e 28 1e ac 3d ac 8f d7 be
       -0.024750195 0.15016258 0.08404189 -0.421018
000100 e3 5d 04 3e cd 23 cd 3f 0c 3b 8d bd fa d1 af 3c
       0.1292644 1.602655 -0.06896028 0.02146243
000110 c7 ef f3 be 86 e7 e5 bd 8e d1 7a bd f5 2c 67 be
       -0.47643873 -0.112258 -0.061235003 -0.22575743
000120 dd 8a af 3d 7e c4 2a 3f d9 81 64 bb 67 84 10 3d
       0.08571408 0.66706073 -0.0034867434 0.03528252
000130 48 25 4d 3c 07 5f da 3e 5a 1d 01 be 5f 6f ba bb
       0.012521096 0.42650625 -0.12608853 -0.005689546
000140 89 1a 04 be 47 d6 38 3e db 27 c4 bc 24 ed cb bd
       -0.12900747 0.1805049 -0.023944786 -0.0995734
000150 fc 4a 26 bf de a7 d8 3e c5 d1 d2 3e 9b 01 af bd
       -0.6495817 0.42315573 0.41175666 -0.08545228
000160 b6 d2 20 be 68 82 88 3e 4a 3e 14 3e d9 44 b2 bd
       -0.1570538 0.26661992 0.14476886 -0.08704538
000170 27 49 92 be 93 fc 46 bd 72 bb e5 bd 4d 4b 8e be
       -0.28571436 -0.048580717 -0.11217393 -0.27791825
000180 6b 09 ff 3d a2 71 9d be ff 1b 5b bd 96 51 f1 3d
       0.12452968 -0.30750757 -0.053493496 0.117831394
000190 6c 33 d4 bd 72 e4 fc 3e 3a 05 8c 3f 55 de bc bc
       -0.103613704 0.4939304 1.0939095 -0.023055235
0001a0 8d ed 3a 3d 9a c8 a1 bc f3 c9 28 be d3 f3 e8 bd
       0.045636702 -0.019748975 -0.16483288 -0.11374631
0001b0 a2 e4 05 be 04 b2 b3 bd 2d d0 e8 3d 80 43 2a 3d
       -0.13075498 -0.08774188 0.113678314 0.04156828
0001c0 c5 cc d9 bd d5 a1 97 3d 16 1e f6 bd 57 52 65 bd
       -0.1063476 0.07403914 -0.12017457 -0.05598673
0001d0 f3 30 0e bd 99 50 ba 3e 3f 88 fa be a1 97 dd 3f
       -0.03471465 0.36389616 -0.48932073 1.7311898
0001e0 52 f0 f3 3e 54 95 ae 3f 1d 37 9b be a7 b6 22 3e
       0.47644287 1.3639321 -0.30315486 0.15889989
0001f0 3a 8b 93 bd 26 11 ab bd 60 67 4e 3c 46 40 01 bd
       -0.0720429 -0.0835288 0.012597889 -0.031555437
000200 3c c7 e7 3d 3a 8b ab be fb 40 bd 3d c1 ce ed 3d
       0.11317298 -0.3350466 0.0924091 0.11611701
000210 d9 a5 0d 3e c2 0c c1 3c 9e 65 51 3c 9a 00 9e 3a
       0.13832797 0.023565654 0.012780575 0.0012054623
000220 1b 42 18 be d5 5e b4 be 88 e5 c2 3c 52 3a 11 3e
       -0.14868967 -0.352286 0.02379109 0.14182404
000230 c6 b8 2c 3e 8a b0 9c 3d ba a6 a6 3d 57 61 a5 3a
       0.1686736 0.0765086 0.08137269 0.001261751
000240 80 e2 1a 3d b7 d9 9a 3e 6b 93 0a 3e d4 e9 3b 3e
       0.037813663 0.30244228 0.13532798 0.18350917
000250 ce a0 2a 3e 50 db 5b 3e b2 b5 8b 3e 4e 64 cd 3c
       0.16662905 0.2147038 0.2728706 0.025072243
000260 aa 7c 12 3e 7a 06 09 3f aa c5 1e 3e fb 18 51 3d
       0.14305368 0.5352551 0.1550509 0.051049214
000270 45 16 69 3d ff 76 11 3e ab ba 2c 3e 9e 2f ef 3d
       0.056906004 0.1420555 0.16868083 0.11679004
000280 37 ff c7 3e 47 90 1a 3e c8 59 66 3d 86 d7 6c 3e
       0.390619 0.150941 0.056237966 0.2312909
000290 ba c7 66 be 5a 44 d6 3c 6f 27 87 3e f4 40 9c 3e
       -0.22537127 0.02615564 0.26397273 0.30518305
0002a0 35 e1 72 3e 1d eb da bd cc 30 1b bd 05 d3 2d bd
       0.23718722 -0.106893755 -0.037888333 -0.042437572
0002b0 80 ad 78 be e7 8d c6 3d ce 5b 48 3e 0b 25 d0 3d
       -0.24284935 0.096950345 0.1956627 0.101633154
0002c0 10 15 35 3d 0a 7f b0 3d 2f 20 85 3e 16 70 85 3c
       0.04420954 0.08617981 0.26001117 0.016288798
0002d0 17 c3 85 bc bc 38 1e 3d 0f 9c 88 bb 84 7e 95 be
       -0.016328378 0.038628325 -0.0041689943 -0.29198086
0002e0 8f cd 66 3e 91 09 b9 be 1c 73 d7 bd 38 aa e7 bb
       0.22539352 -0.3614011 -0.10520002 -0.007069852
0002f0 32 4b a6 3d 7a 44 57 3d a5 fa 06 3e 6e 27 13 bd
       0.08119811 0.05255554 0.13181551 -0.035926275
000300 4e a3 a3 3d 62 ef 75 be e9 6f be bd a2 44 29 3c
       0.07990132 -0.24017099 -0.09298689 0.010331305
000310 33 60 96 3a 95 3b 2e 3d 60 b7 35 bd e1 9e 5c bc
       0.0011472761 0.04253729 -0.044364333 -0.013465614
000320 8f 96 8e bd 32 63 0b bf f8 23 a1 3b 28 8f 7e 3d
       -0.069623105 -0.54448235 0.004917618 0.062148243
000330 06 a2 56 3e 5d f6 13 3e 34 f9 be bd 11 fc 93 3d
       0.20960245 0.14449449 -0.093248755 0.07225812
000340 57 75 e7 bc d9 ad c7 3e bc f9 98 3d 3b 11 7c 3e
       -0.028254194 0.38999823 0.07469508 0.24615948
000350 b6 a3 3e 3e 7d cb b1 3e d3 c2 9a 3e b5 58 15 3e
       0.18617138 0.34725562 0.30226764 0.1458462
000360 9b c5 f1 3d d5 e5 0a 3f e2 68 49 3e e9 c6 ca 3d
       0.118052684 0.54256946 0.19668916 0.0990122
000370 43 53 68 bd 43 e9 5d 3d 2f 38 c3 3d 39 ba 32 3d
       -0.05672003 0.054177534 0.095322005 0.043634627
000380 88 ef 8b 3e b7 82 bd 3d 4e ad b4 3d 8f 24 5d 3e
       0.27331185 0.092534475 0.08822118 0.21595977
000390 5d fb 85 bd 8a 9a f0 3c f9 4d 7a 3e ba d2 02 3e
       -0.06542084 0.029370565 0.24443807 0.12775698
0003a0 8a 36 49 3e ce a3 32 be 5a 13 55 3d 9d e3 e2 bd
       0.19649711 -0.17445299 0.05202041 -0.1107857
0003b0 27 41 02 be b9 c8 c1 bc 9c 1a 97 3e d7 e6 9d 3d
       -0.12720166 -0.023655282 0.2951249 0.07710045
0003c0 22 22 00 3d fb 75 f0 3a fa f5 bb 3e b8 8c f7 3c
       0.03128255 0.0018345708 0.36711103 0.030218467
0003d0 2d 78 47 3d 68 fe 31 bd 86 6f 11 3e fa ac 0f bf
       0.048698593 -0.04345551 0.14202699 -0.56123316
0003e0 5d d5 21 3e a2 f1 4a be 99 df bb bd 36 e8 ca bd
       0.15804048 -0.19818738 -0.09173507 -0.09907572
0003f0 e9 3e 20 3e 3a 0c de 3d 87 5b bd 3c 42 77 7e bd
       0.15648998 0.10842176 0.023114933 -0.062125452

bias f4 [32]
000000 9e 5d 11 be 76 d7 a1 be dd 5c a0 3e c7 26 c0 3e
       -0.14195868 -0.31609696 0.3132085 0.37529585
000010 a8 d2 ad be 1b 3b b4 bd bf 00 c6 3e 97 4b 39 bd
       -0.3394978 -0.08800336 0.38672444 -0.045238104
000020 d8 61 99 3e f8 82 10 be 91 02 ef bd 9c ca 54 be
       0.2995746 -0.1411246 -0.116704114 -0.20780414
000030 14 2c ce be ef 6e b8 3e 42 f8 9a bb f3 ec 85 3e
       -0.40268004 0.36022136 -0.0047293017 0.2615734
000040 f0 5a 0b be fe 43 86 bd 54 30 a6 be 55 7f c0 3e
       -0.13608909 -0.06555937 -0.32458746 0.37597147
000050 6a 5a bb be 37 a5 a9 be 30 4a a8 3e 96 28 1a 3d
       -0.36592418 -0.3313386 0.328691 0.037636362
000060 bc 92 c4 be 7f a8 4a be 30 d5 22 be 80 f4 c9 be
       -0.383932 -0.19790839 -0.15901637 -0.3944435
000070 98 e6 81 be 38 cc 87 be 0a 3c a9 3e fa 70 e0 be
       -0.25371242 -0.26522994 0.3305362 -0.43836194

weight f4 [1, 32]
000000 d7 57 2b 3f 49 f4 92 3f b5 6b 34 be 4b b7 f6 bd
       0.6693091 1.14808 -0.17619212 -0.12046679
000010 3a 54 5f 3f 36 4f 8c 3f 00 4c cd bd 0c 1d fa be
       0.87237895 1.0961673 -0.100242615 -0.48850286
000020 2e c6 18 bd f1 27 10 3f 54 08 89 3f 0b f9 66 3f
       -0.037298374 0.56310946 1.0705667 0.9022376
000030 ee 51 b1 3f 20 e6 17 be 39 cc 8a 3f 22 45 e1 bd
       1.3853128 -0.1483388 1.0843574 -0.10999514
000040 d3 81 73 3f be 16 37 bc 98 7a 9f 3f 2e 38 e9 bd
       0.9511997 -0.011174856 1.2459288 -0.113876686
000050 f9 32 08 3f ff f2 cb 3f 63 73 f5 bd 4f 5f 85 3f
       0.5320278 1.5933532 -0.11984899 1.0419711
000060 3b 7f 92 3f 97 7c a4 3f 29 0c 03 3f 3d 80 80 3f
       1.1445078 1.2850522 0.5119043 1.0039135
000070 d1 3c 5a 3f 1b 27 b7 3f 4c 5c 56 be 8f 44 b2 3f
       0.8524905 1.4308809 -0.20933646 1.3927172
