save/intrusion_detector_full.pth (torch, 17045 bytes, 5 tensors)

weight f4 [64, 13]
0.031719267 -0.5310879 0.14831492 -0.05229026 -0.5109728 0.12658566 -0.15469511 0.04103557
-0.053809304 0.2735636 -0.11544831 0.21411818 -0.010699191 -0.12709661 0.8424909 0.0010500738
0.14332184 -0.046728995 -0.025126927 0.036815412 0.08314805 0.043762676 0.046514783 0.16520248
0.045683198 0.28028837 -0.16494806 -0.58294153 0.2534375 -0.147918 -0.28422454 -0.11761671
0.044680785 -0.3163482 0.11242559 0.4417591 0.073149964 0.056753654 -0.07456909 -0.012608284
0.5137094 -0.2721277 -0.13501087 0.34094042 0.15874353 0.13891807 -0.017790409 -0.07672326
0.014996408 0.021510983 0.033171017 -0.014184644 0.2193498 -0.2903468 0.3326419 -0.21033652
-0.27741107 0.038007937 -0.18876767 -0.058360506 0.18907256 -0.2399765 -0.15804236 0.123317555
-0.043350317 -0.4403399 -0.3896983 -0.45525205 -0.03342729 0.0622388 0.12090105 0.014840459
-0.17496555 0.26524898 -0.27874094 -0.43902668 0.08931767 -0.32105795 -0.43730265 -0.25283742
0.31854972 0.27215847 -0.12209137 0.29018918 -0.24047714 0.3089136 0.109628245 -0.19126043
0.2592791 -0.20971024 -0.13522781 0.33502504 -0.12089451 0.08505046 0.22572125 0.92278504
-0.025968192 -0.17143442 0.1248558 0.08950733 0.14317776 0.11391163 0.10926431 0.040850703
-0.23244265 -0.061563794 0.40124208 0.14139724 0.03702117 -0.607463 0.23991127 0.06112581
0.20378725 0.20420182 0.08463542 -0.16301972 -0.02598829 -0.24859998 -0.46475327 -0.23969997
-0.078616805 -0.2792752 -0.44658178 -0.10520201 -0.38113514 -0.10365443 0.18432201 0.12368509
-0.24500117 -0.1653226 -0.3010019 -0.52013206 -0.26564768 -0.21445349 -0.14753857 -0.10623975
0.10840991 -0.018400941 0.3639186 0.12869443 -0.18325022 -0.31357557 -0.05006139 -0.09852719
-0.35539034 -0.3621551 0.24348743 -0.23230189 0.019005654 -0.08082134 0.012666138 0.14352226
0.15300801 0.31946856 -0.17422311 -0.019975645 -0.3678094 -0.4851337 0.041156396 -0.20270625
-0.3738352 -0.40102142 0.21417475 0.074215844 -0.2084461 0.2117021 0.19044589 0.15454753
-0.13806865 -0.24612734 -0.18619929 -0.40958318 0.109578215 0.42503983 -0.03603026 0.12355748
-0.23210101 -0.027629184 0.23265637 0.10777512 -0.23383263 0.21504474 0.0034417715 0.04176093
0.039613865 0.16195 0.83541983 -0.052152827 -0.10609405 -0.087470554 -0.029436043 0.023598468
0.0061985357 0.025325239 -0.027093308 0.1242138 -0.010573792 -0.27381507 0.17633466 -0.3959384
0.1918791 -0.026281172 -0.13606238 -0.24345523 0.1614567 0.1695783 -0.03590942 -0.12377431
-0.02502312 -0.04042416 -0.0042571574 -0.045009058 0.8662003 -0.16288213 -0.2526471 -0.20630002
0.04054242 0.02589157 0.052629203 0.09636464 0.00023521637 0.054176856 -0.36218062 -0.15027097
0.11204906 -0.1345679 -0.062224627 0.38585708 -0.099866286 -0.0143621415 0.112594165 0.10558005
0.16916034 -0.043932717 -0.13719243 -0.15572225 0.44420844 -0.022704491 0.72933245 0.04877915
0.045281995 0.16695207 0.13626866 0.13547899 0.32717237 0.036246914 -0.20913835 -0.098504424
-0.34738335 0.020864448 0.2510461 1.0382944 -0.0017230469 -0.11313058 -0.27219355 -0.023005351
00000000: 10ec 013d 60f5 07bf dedf 173e 502e 56bd
00000010: 1dcf 02bf ac9f 013e 6568 1ebe ea14 283d
00000020: 2567 5cbd 8710 8c3e 2a70 ecbd cc41 5b3e
00000030: a94b 2fbc 9d25 02be 7cad 573f a1a2 893a
00000040: f6c2 123e e766 3fbd fcd6 cdbc c2cb 163d
00000050: 8649 aa3d 7e40 333d 4986 3e3d d72a 293e
00000060: 4e1e 3b3d f581 8f3e 25e8 28be a83b 15bf
00000070: 8fc2 813e d177 17be e185 91be 08e1 f0bd
00000080: 3303 373d 64f8 a1be 633f e63d 402e e23e
00000090: a6cf 953d 8576 683d aeb7 98bd fa92 4ebc
000000a0: 7682 033f 5254 8bbe 4a40 0abe be8f ae3e
000000b0: aa8d 223e 8a40 0e3e 31bd 91bc 1621 9dbd
000000c0: 7eb3 753c cd37 b03c 55de 073d b666 68bc
000000d0: 3c9d 603e 56a8 94be 0a50 aa3e 7562 57be
000000e0: d308 8ebe 36ae 1b3d 504c 41be 6d0b 6fbd
000000f0: 3d9c 413e 66bc 75be dbd5 21be ea8d fc3d
00000100: 1a90 31bd 3b74 e1be 8986 c7be cc16 e9be
00000110: 0eeb 08bd 1dee 7e3d f89a f73d 6625 733c
00000120: 2b2a 33be b7ce 873e 22b7 8ebe 1bc8 e0be
00000130: 2fec b63d b561 a4be 22e6 dfbe e873 81be
00000140: f318 a33e 5b58 8b3e 0a0b fabd ad93 943e
00000150: a43f 76be ec29 9e3e c684 e03d c6d9 43be
00000160: 3bc0 843e 48be 56be 2979 0abe 6788 ab3e
00000170: 8a97 f7bd f02e ae3d 7923 673e a43b 6c3f
00000180: 3fbb d4bc 818c 2fbe 66b4 ff3d 9e4f b73d
00000190: 319d 123e 804a e93d f7c5 df3d 1153 273d
000001a0: 7205 6ebe 512a 7cbd 9a6f cd3e 70ca 103e
000001b0: 83a3 173d b282 1bbf 4dab 753e 0f5f 7a3d
000001c0: 9bad 503e 481a 513e 5655 ad3d a4ee 26be
000001d0: 65e5 d4bc fe90 7ebe 24f4 edbe e973 75be
000001e0: d901 a1bd 29fd 8ebe 5ea6 e4be 2774 d7bd
000001f0: 2524 c3be c648 d4bd e9be 3c3e 9c4e fd3d
00000200: 96e1 7abe 544a 29be ec1c 9abe 6027 05bf
00000210: f902 88be b299 5bbe 5a14 17be 3a94 d9bd
00000220: 0406 de3d 92bd 96bc 8a53 ba3e 79c8 033e
00000230: f2a5 3bbe fa8c a0be 2c0d 4dbd a0c8 c9bd
00000240: b9f5 b5be 656c b9be c554 793e 8ce0 6dbe
00000250: bfb1 9b3c a985 a5bd a285 4f3c 80f7 123e
00000260: 22ae 1c3e 6291 a33e 8b67 32be f7a3 a3bc
00000270: 8451 bcbe 7263 f8be 9c93 283d 3a92 4fbe
00000280: 5467 bfbe ae52 cdbe a050 5b3e 7afe 973d
00000290: e572 55be 6fc8 583e 3f04 433e b541 1e3e
000002a0: de61 0dbe ce08 7cbe 07ab 3ebe e3b4 d1be
000002b0: 8b6a e03d d29e d93e 7794 13bd b40b fd3d
000002c0: e3ab 6dbe 9956 e2bc 793d 6e3e 34b9 dc3d
000002d0: d271 6fbe b034 5c3e 588f 613b 820d 2b3d
000002e0: 2642 223d 39d6 253e 13de 553f 349e 55bd
000002f0: d647 d9bd c323 b3bd db23 f1bc 9351 c13c
00000300: 161d cb3b e076 cf3c c9f2 ddbc ce63 fe3d
00000310: b33d 2dbc 7d31 8cbe 1391 343e 70b8 cabe
00000320: f47b 443e 9d4b d7bc f053 0bbe 544c 79be
00000330: e854 253e efa5 2d3e c215 13bd 637d fdbd
00000340: 49fd ccbc ce93 25bd a07f 8bbb 6b5b 38bd
00000350: 4ebf 5d3f 93ca 26be f65a 81be 5040 53be
00000360: cf0f 263d 8f1a d43c b891 573d d35a c53d
00000370: 6aa4 7639 8de8 5d3d bd6f b9be a2e0 19be
00000380: fa79 e53d 2bcc 09be 40df 7ebd 0f8f c53e
00000390: b286 ccbd 304f 6bbc c597 e63d 5a3a d83d
000003a0: 5e38 2d3e cbf2 33bd 2c7c 0cbe a775 1fbe
000003b0: 4a6f e33e c5fe b9bc 88b5 3a3f a5cc 473d
000003c0: 9d79 393d 7cf5 2a3e 038a 0b3e 01bb 0a3e
000003d0: 2383 a73e a577 143d 5d28 56be b0bc c9bd
000003e0: 3bdc b1be ebeb aa3c 1d89 803e d5e6 843f
000003f0: dcd7 e1ba 01b1 e7bd f45c 8bbe b875 bcbc

bias f4 [64]
-0.4446866 -0.47828823 -0.52338165 -0.40442005 -0.136711 -0.012402468 -0.23767279 -0.39287677
-0.49851042 0.18018414 0.034381602 0.22419517 -0.0010208153 -0.1781693 -0.5228871 -0.12770794
-0.4857789 0.09270252 -0.40497798 -0.52049935 -0.4400805 0.05581538 -0.23096697 -0.5287573
0.22337626 -0.61791897 -0.44356078 -0.40448457 -0.07467317 -0.7911752 -0.0013836183 0.2433655
-0.5007712 0.10587491 -0.82462233 0.044772573 -0.2128842 -0.38774562 -0.67491084 0.17168428
-0.09548755 -0.122204356 0.15458474 -0.23340179 -0.19687039 -0.43643177 -0.041055646 0.063154005
0.08519329 -0.49791527 0.013419478 -0.739797 0.048664365 -0.13935393 0.038876258 -0.7601146
-0.3681511 -0.17598042 0.0046089566 0.095845535 -0.8354006 0.0429102 -0.2856106 -0.08475792
00000000: f6ad e3be 32e2 f4be 57fc 05bf 2510 cfbe
00000010: f8fd 0bbe b933 4bbc 7f60 73be 2527 c9be
00000020: c23c ffbe 3182 383e b9d3 0c3d 6b93 653e
00000030: e1cc 85ba 0372 36be eedb 05bf dfc5 02be
00000040: 03b8 f8be d2da bd3d 4659 cfbe 723f 05bf
00000050: 3b52 e1be ab9e 643d 9b82 6cbe a35c 07bf
00000060: bfbc 643e f02f 1ebf 661a e3be 9a18 cfbe
00000070: 3fee 98bd 758a 4abf 875a b5ba ce34 793e
00000080: 8b32 00bf f2d4 d83d 731a 53bf 7263 373d
00000090: 51fe 59be 9886 c6be f5c6 2cbf 01ce 2f3e
000000a0: fa8e c3bd 4746 fabd 764b 1e3e e100 6fbe
000000b0: 6498 49be fc73 dfbe f729 28bd e356 813d
000000c0: d279 ae3d c0ee febe 5fdd 5b3c 5663 3dbf
000000d0: 4954 473d ccb2 0ebe b63c 1f3d df96 42bf
000000e0: 4d7e bcbe 3634 34be bb06 973b aa4a c43d
000000f0: d0dc 55bf 9bc2 2f3d 8d3b 92be 8f95 adbd

weight f4 [32, 64]
-0.13249479 -0.18300086 0.22689062 0.04286716 0.14144 -0.03591053 -0.1808486 -0.3235315
0.10736972 0.2945663 0.090185575 0.16949055 -0.14206716 0.10969875 0.003713221 -0.008390593
0.2312836 0.11574051 -0.37241462 -0.16800757 0.33375204 -0.067451745 0.05413533 0.12967212
0.011310343 -0.58653086 -0.22752964 -0.66866046 -0.18371806 -0.029036699 0.18054219 0.043321304
-0.017770411 -0.0603585 -0.21970601 -0.0774532 0.3041998 -0.0748632 -0.25776318 -0.07292436
-0.13989006 -0.090541616 0.054832432 -0.116439275 -0.005771619 -0.09567065 0.20486702 0.033832174
0.12336967 0.10826869 0.09059501 -0.08912993 0.023815477 -0.1426998 0.08022559 -0.4468097
-0.025797568 -0.38094 0.033907216 0.20949052 -0.22655603 -0.15196066 -0.16944037 0.076246955
-0.018725367 0.12888853 -0.15946528 -0.1575348 0.1688408 0.061747 0.05905501 0.13252263
-0.35704875 -0.085288174 -0.044305533 0.046825748 -0.14007716 -0.018244335 -0.21589659 0.2269294
0.077271216 0.03273623 -0.024435375 0.34949586 0.1534934 0.074904084 0.10098401 0.30286962
0.18345977 -0.17808144 -0.09649783 0.19030012 -0.026470346 0.3127053 0.021894854 -0.12951241
0.26949576 0.022995837 -0.54345524 0.111991964 -0.010929617 -0.034859005 -0.4503604 0.15134166
0.102668375 -0.07065172 -0.10396018 -0.07432131 0.16286679 0.21882902 0.028646158 0.15536198
-0.058954418 0.1494427 -0.0559144 -0.30228236 0.0016296855 -0.22204888 -0.06414539 -0.06273494
0.21663669 -0.1767327 -0.029105248 -0.039860763 -0.62331975 0.03417595 0.0703234 0.107576646
0.28955644 0.115213476 0.20563126 0.29270962 0.19917664 -0.9017821 0.24352483 0.17735596
-0.46674576 -0.40946257 -0.4276518 -0.34506565 -0.0058418205 0.4025971 0.10420452 0.025109
0.21973094 -0.091314666 0.27029303 0.12149142 0.012522294 -0.86870134 -0.77468306 0.25369972
0.124155805 0.35056958 -0.16196948 -0.4830114 -0.04212948 -0.16611722 -0.86944747 -0.98321533
-0.2579089 0.13168958 0.117817715 -0.335958 -0.60014826 0.05747666 0.57932377 0.12167146
-0.3179073 -0.4978951 -0.15771247 0.34106383 -0.008732921 0.07521333 -0.7995887 0.07018502
0.19529939 -0.077004015 -0.4743212 -0.14441526 -0.28613833 -0.11612628 -0.59399015 -0.6719519
0.17423251 -0.044281423 0.033759747 -0.3149858 -0.07510577 -0.17845644 0.1729913 -0.47359216
0.22050358 0.005596707 -0.024990024 -0.046770956 0.035023294 -0.08471537 0.015965745 0.011521097
-0.02610239 -0.08334856 -0.030658312 -0.11463973 -0.08583826 0.1115577 -0.16799107 0.059462707
-0.2112954 -0.020510249 -0.15487915 0.03757448 0.31604654 -0.040440824 -0.03267758 0.09642051
0.18347864 -0.25430867 -0.005774554 0.0032526632 -0.07278454 0.17097008 -0.07813718 -0.19036108
0.21190287 -0.046799976 -0.40853345 -0.24341519 0.16877466 -0.022007577 -0.5583246 0.031057945
-0.023439895 -0.16603836 -0.03365212 -0.08945508 -0.082964644 -0.019462122 -0.07974707 0.09599737
0.08199964 0.2531245 -0.06889793 -0.06781985 -0.089893445 -0.18139873 -0.1990243 0.011897888
-0.09949005 -0.032490216 -0.07893461 -0.19498818 -0.32421008 0.015727261 0.017365856 -0.03033775
00000000: b7ac 07be 9464 3bbe 0456 683e 7a95 2f3d
00000010: a6d5 103e eb16 13bd 6030 39be eca5 a5be
00000020: a8e4 db3d 65d1 963e 37b3 b83d ee8e 2d3e
00000030: 0e7a 11be bda9 e03d 8359 733b b378 09bc
00000040: 9cd5 6c3e 5c09 ed3d 21ad bebe 2d0a 2cbe
00000050: 8ce1 aa3e 2424 8abd 02bd 5d3d c5c8 043e
00000060: 044f 393c e326 16bf 88fd 68be 552d 2bbf
00000070: 9620 3cbe 5fde edbc 0de0 383e ae71 313d
00000080: 4193 91bc 793a 77bd 9dfa 60be c99f 9ebd
00000090: 14c0 9b3e e151 99bd 89f9 83be 5e59 95bd
000000a0: 573f 0fbe e26d b9bd f997 603d b777 eebd
000000b0: d91f bdbb f9ee c3bd a9c8 513e 9b93 0a3d
000000c0: 3da9 fc3d fabb dd3d e089 b93d c189 b6bd
000000d0: ad18 c33c e51f 12be 504d a43d 3ec4 e4be
000000e0: 6c55 d3bc 910a c3be 4be2 0a3d af84 563e
000000f0: 4efe 67be 939b 1bbe c781 2dbe 5d27 9c3d
00000100: f165 99bc 5bfb 033e de4a 23be cd50 21be
00000110: 9ae4 2c3e 6cea 7c3d abe3 713d 03b4 073e
00000120: 18cf b6be 91ab aebd b879 35bd 5bcc 3f3d
00000130: 6370 0fbe 2575 95bc ff13 5dbe 2e60 683e
00000140: 5f40 9e3d 6d16 063d b22c c8bc 1ff1 b23e
00000150: 602d 1d3e 5067 993d b4d0 ce3d ba11 9b3e
00000160: e1dc 3b3e fb5a 36be a7a0 c5bd 09de 423e
00000170: 57d8 d8bc e91a a03e d65c b33c e79e 04be
00000180: 59fb 893e c461 bc3c e21f 0bbf 0b5c e53d
00000190: 2312 33bc 51c8 0ebd a395 e6be 4ff9 1a3e
000001a0: cc43 d23d d9b1 90bd 13e9 d4bd c535 98bd
000001b0: 8dc6 263e b714 603e 59ab ea3c 3617 1f3e
000001c0: 307a 71bd 8207 193e 7f06 65bd c1c4 9abe
000001d0: 2c9b d53a c860 63be a95e 83bd 2d7b 80bd
000001e0: 02d6 5d3e 6bf9 34be 216e eebc 0a45 23bd
000001f0: e291 1fbf 15fc 0b3d b705 903d 2551 dc3d
00000200: be40 943e 0bf5 eb3d 0091 523e 09de 953e
00000210: f6f4 4b3e 31db 66bf 935e 793e cd9c 353e
00000220: 4df9 eebe 14a5 d1be 2df5 dabe 72ac b0be
00000230: be6c bfbb 3521 ce3e 2e69 d53d 64b1 cd3c
00000240: 2601 613e 2f03 bbbd d963 8a3e 7ed0 f83d
00000250: 4f2a 4d3c 3663 5ebf a151 46bf eee4 813e
00000260: 6645 fe3d db7d b33e 54db 25be 454d f7be
00000270: f68f 2cbd a21a 2abe 1c94 5ebf 00b4 7bbf
00000280: a30c 84be a2d9 063e 6a4a f13d b002 acbe
00000290: 51a3 19bf a56c 6b3d 904e 143f e32e f93d
000002a0: bfc4 a2be 1bec febe 617f 21be eb9f ae3e
000002b0: 8714 0fbc 7209 9a3d d8b1 4cbf 2abd 8f3d
000002c0: 90fc 473e 48b4 9dbd 3ada f2be 98e1 13be
000002d0: b980 92be 9dd3 edbd bd0f 18bf 0a05 2cbf
000002e0: 026a 323e 7060 35bd a947 0a3d d245 a1be
000002f0: 0ed1 99bd 49bd 36be a224 313e ac7a f2be
00000300: b1cb 613e 9564 b73b e1b7 ccbc e792 3fbd
00000310: 9674 0f3d 407f adbd 98ca 823c fcc2 3c3c
00000320: aed4 d5bc a6b2 aabd 2427 fbbc 3cc8 eabd
00000330: f8cb afbd 5d78 e43d da05 2cbe 2b8f 733d
00000340: d25d 58be 1c05 a8bc a498 1ebe b3e7 193d
00000350: dad0 a13e 47a5 25bd edd8 05bd 1e78 c53d
00000360: d3e1 3b3e bf34 82be 7838 bdbb a22a 553b
00000370: 1010 95bd c812 2f3e 6306 a0bd 04ee 42be
00000380: 11fd 583e 55b1 3fbd 4c2b d1be d541 79be
00000390: 44d3 2c3e 3c49 b4bc 5cee 0ebf 3b6d fe3c
000003a0: 0605 c0bc f605 2abe ced6 09bd 3a34 b7bd
000003b0: 5ee9 a9bd 076f 9fbc 6f52 a3bd 459a c43d
000003c0: 6def a73d 8999 813e 5c1a 8dbd 22e5 8abd
000003d0: 0e1a b8bd 97c0 39be 07cd 4bbe 5cef 423c
000003e0: 70c1 cbbd 7614 05bd 78a8 a1bd fbaa 47be
000003f0: ddfe a5be 75d6 803c d742 8e3c e086 f8bc

bias f4 [32]
-0.10770928 0.43993247 -0.09154452 0.10456639 0.039744813 0.46944857 0.3053421 0.12404342
-0.08942445 0.27443168 0.25871876 0.20060538 -0.38932428 0.46010512 -0.085846364 0.110867605
-0.32036632 0.17971428 -0.0047846385 0.26007473 -0.09108469 0.035022978 0.26719356 0.030184673
-0.27175528 -0.36230323 0.20403896 0.18618181 -0.18173158 -0.043077253 0.19202434 0.28651714
00000000: af96 dcbd d43e e13e b17b bbbd e726 d63d
00000010: 75cb 223d 905b f03e cd55 9c3e 7a0a fe3d
00000020: 2b24 b7bd 4f82 8c3e c976 843e 7f6b 4d3e
00000030: 8355 c7be e692 eb3e 38d0 afbd 8e0e e33d
00000040: 0e07 a4be 0507 383e 75c8 9cbb 8428 853e
00000050: 9c8a babd 4174 0f3d 98cd 883e d945 f73c
00000060: 8223 8bbe cf7f b9be 97ef 503e 72a6 3e3e
00000070: d817 3abe c671 30bd 07a2 443e 60b2 923e

weight f4 [1, 32]
-0.2114569 -0.092566736 1.4117769 -0.03289714 -0.00012902121 -0.25141877 -0.013670414 0.004709837
0.6619423 -0.30693108 -0.034402076 -0.68632513 1.8679603 -0.1580899 1.188358 -0.46741173
1.17038 -0.053987924 -0.7664443 -0.74430984 1.2561573 -0.43486455 -0.18639672 -0.60600585
1.289685 1.5439911 -0.25432357 -0.05535357 1.0358772 1.2662411 0.27105457 -0.2909223
00000000: 2888 58be a193 bdbd 1bb5 b43f 27bf 06bd
00000010: de49 07b9 f6b9 80be dff9 5fbc fa54 9a3b
00000020: 0d75 293f 1226 9dbe 31e9 0cbd 01b3 2fbf
00000030: 5319 ef3f 52e2 21be 1d1c 983f 9750 efbe
00000040: 03cf 953f 7122 5dbd b235 44bf 178b 3ebf
00000050: c3c9 a03f 91a6 debe c8de 3ebe 3323 1bbf
00000060: 6614 a53f 80a1 c53f b336 82be 6dba 62bd
00000070: a097 843f 3014 a23f aac7 8a3e c5f3 94be
